…
num each in train_clusters:[6840, 1075, 2698, 958, 952, 1707, 1490, 549, 522, 519, 812, 383, 335, 312]
num each in test_clusters:[785, 83, 303, 96, 16, 183, 173, 53, 51, 47, 85, 34, 39, 25]
number of pockets in training set:  19152
number of pockets in test set:  1973
first 5 pockets in train set of cluster 0 before merging (to verify reproducibility):
['3lv8A00', '3d54A00', '2hs0A00', '4dz6D00', '6g2jO00']
first 5 pockets in test set of cluster 0 before merging (to verify reproducibility):
['4tmkA00', '5zwbB00', '2yohA00', '1xjqA01', '5xmiC00']
model architecture:
GraphsiteClassifier(
  (embedding_net): JKMCNWMEmbeddingNet(
    (conv0): MCNWMConv(
      (nn): Sequential(
        (0): Linear(in_features=15, out_features=96, bias=True)
        (1): LeakyReLU(negative_slope=0.01)
        (2): Linear(in_features=96, out_features=96, bias=True)
      )
      (NMMs): ModuleList(
        (0-2): 3 x NWMConv(edge_nn=Sequential(
          (0): Linear(in_features=1, out_features=8, bias=True)
          (1): LeakyReLU(negative_slope=0.01)
          (2): Linear(in_features=8, out_features=1, bias=True)
          (3): ELU(alpha=1.0)
        ))
      )
    )
    (bn0): BatchNorm1d(96, eps=1e-05, momentum=0.1, affine=True, track_running_stats=True)
    (conv1): MCNWMConv(
      (nn): Sequential(
        (0): Linear(in_features=288, out_features=96, bias=True)
        (1): LeakyReLU(negative_slope=0.01)
        (2): Linear(in_features=96, out_features=96, bias=True)
      )
      (NMMs): ModuleList(
        (0-2): 3 x NWMConv(edge_nn=Sequential(
          (0): Linear(in_features=1, out_features=8, bias=True)
          (1): LeakyReLU(negative_slope=0.01)
          (2): Linear(in_features=8, out_features=1, bias=True)
          (3): ELU(alpha=1.0)
        ))
      )
    )
    (bn1): BatchNorm1d(96, eps=1e-05, momentum=0.1, affine=True, track_running_stats=True)
    (conv2): MCNWMConv(
      (nn): Sequential(
        (0): Linear(in_features=288, out_features=96, bias=True)
        (1): LeakyReLU(negative_slope=0.01)
        (2): Linear(in_features=96, out_features=96, bias=True)
      )
      (NMMs): ModuleList(
        (0-2): 3 x NWMConv(edge_nn=Sequential(
          (0): Linear(in_features=1, out_features=8, bias=True)
          (1): LeakyReLU(negative_slope=0.01)
          (2): Linear(in_features=8, out_features=1, bias=True)
          (3): ELU(alpha=1.0)
        ))
      )
    )
    (bn2): BatchNorm1d(96, eps=1e-05, momentum=0.1, affine=True, track_running_stats=True)
    (conv3): MCNWMConv(
      (nn): Sequential(
        (0): Linear(in_features=288, out_features=96, bias=True)
        (1): LeakyReLU(negative_slope=0.01)
        (2): Linear(in_features=96, out_features=96, bias=True)
      )
      (NMMs): ModuleList(
        (0-2): 3 x NWMConv(edge_nn=Sequential(
          (0): Linear(in_features=1, out_features=8, bias=True)
          (1): LeakyReLU(negative_slope=0.01)
          (2): Linear(in_features=8, out_features=1, bias=True)
          (3): ELU(alpha=1.0)
        ))
      )
    )
    (bn3): BatchNorm1d(96, eps=1e-05, momentum=0.1, affine=True, track_running_stats=True)
    (conv4): MCNWMConv(
      (nn): Sequential(
        (0): Linear(in_features=288, out_features=96, bias=True)
        (1): LeakyReLU(negative_slope=0.01)
        (2): Linear(in_features=96, out_features=96, bias=True)
      )
      (NMMs): ModuleList(
        (0-2): 3 x NWMConv(edge_nn=Sequential(
          (0): Linear(in_features=1, out_features=8, bias=True)
          (1): LeakyReLU(negative_slope=0.01)
          (2): Linear(in_features=8, out_features=1, bias=True)
          (3): ELU(alpha=1.0)
        ))
      )
    )
    (bn4): BatchNorm1d(96, eps=1e-05, momentum=0.1, affine=True, track_running_stats=True)
    (conv5): MCNWMConv(
      (nn): Sequential(
        (0): Linear(in_features=288, out_features=96, bias=True)
        (1): LeakyReLU(negative_slope=0.01)
        (2): Linear(in_features=96, out_features=96, bias=True)
      )
      (NMMs): ModuleList(
        (0-2): 3 x NWMConv(edge_nn=Sequential(
          (0): Linear(in_features=1, out_features=8, bias=True)
          (1): LeakyReLU(negative_slope=0.01)
          (2): Linear(in_features=8, out_features=1, bias=True)
          (3): ELU(alpha=1.0)
        ))
      )
    )
    (bn5): BatchNorm1d(96, eps=1e-05, momentum=0.1, affine=True, track_running_stats=True)
    (set2set): Set2Set(96, 192)
  )
  (fc1): Linear(in_features=192, out_features=96, bias=True)
  (fc2): Linear(in_features=96, out_features=14, bias=True)
)
optimizer:
Adam (
Parameter Group 0
    amsgrad: False
    betas: (0.9, 0.999)
    capturable: False
    differentiable: False
    eps: 1e-08
    foreach: None
    fused: None
    lr: 0.003
    maximize: False
    weight_decay: 0.0007
)
learning rate scheduler: 
<torch.optim.lr_scheduler.ReduceLROnPlateau object at 0x7f05ff3285d0>
initial gamma of FocalLoss:  0
…
num each in train_clusters:[6840, 1075, 2698, 958, 952, 1707, 1490, 549, 522, 519, 812, 383, 335, 312]
num each in test_clusters:[785, 83, 303, 96, 16, 183, 173, 53, 51, 47, 85, 34, 39, 25]
number of pockets in training set:  19152
number of pockets in test set:  1973
first 5 pockets in train set of cluster 0 before merging (to verify reproducibility):
['3lv8A00', '3d54A00', '2hs0A00', '4dz6D00', '6g2jO00']
first 5 pockets in test set of cluster 0 before merging (to verify reproducibility):
['4tmkA00', '5zwbB00', '2yohA00', '1xjqA01', '5xmiC00']
model architecture:
GraphsiteClassifier(
  (embedding_net): JKMCNWMEmbeddingNet(
    (conv0): MCNWMConv(
      (nn): Sequential(
        (0): Linear(in_features=33, out_features=128, bias=True)
        (1): LeakyReLU(negative_slope=0.01)
        (2): Linear(in_features=128, out_features=128, bias=True)
      )
      (NMMs): ModuleList(
        (0-2): 3 x NWMConv(edge_nn=Sequential(
          (0): Linear(in_features=1, out_features=8, bias=True)
          (1): LeakyReLU(negative_slope=0.01)
          (2): Linear(in_features=8, out_features=1, bias=True)
          (3): ELU(alpha=1.0)
        ))
      )
    )
    (bn0): BatchNorm1d(128, eps=1e-05, momentum=0.1, affine=True, track_running_stats=True)
    (conv1): MCNWMConv(
      (nn): Sequential(
        (0): Linear(in_features=384, out_features=128, bias=True)
        (1): LeakyReLU(negative_slope=0.01)
        (2): Linear(in_features=128, out_features=128, bias=True)
      )
      (NMMs): ModuleList(
        (0-2): 3 x NWMConv(edge_nn=Sequential(
          (0): Linear(in_features=1, out_features=8, bias=True)
          (1): LeakyReLU(negative_slope=0.01)
          (2): Linear(in_features=8, out_features=1, bias=True)
          (3): ELU(alpha=1.0)
        ))
      )
    )
    (bn1): BatchNorm1d(128, eps=1e-05, momentum=0.1, affine=True, track_running_stats=True)
    (conv2): MCNWMConv(
      (nn): Sequential(
        (0): Linear(in_features=384, out_features=128, bias=True)
        (1): LeakyReLU(negative_slope=0.01)
        (2): Linear(in_features=128, out_features=128, bias=True)
      )
      (NMMs): ModuleList(
        (0-2): 3 x NWMConv(edge_nn=Sequential(
          (0): Linear(in_features=1, out_features=8, bias=True)
          (1): LeakyReLU(negative_slope=0.01)
          (2): Linear(in_features=8, out_features=1, bias=True)
          (3): ELU(alpha=1.0)
        ))
      )
    )
    (bn2): BatchNorm1d(128, eps=1e-05, momentum=0.1, affine=True, track_running_stats=True)
    (conv3): MCNWMConv(
      (nn): Sequential(
        (0): Linear(in_features=384, out_features=128, bias=True)
        (1): LeakyReLU(negative_slope=0.01)
        (2): Linear(in_features=128, out_features=128, bias=True)
      )
      (NMMs): ModuleList(
        (0-2): 3 x NWMConv(edge_nn=Sequential(
          (0): Linear(in_features=1, out_features=8, bias=True)
          (1): LeakyReLU(negative_slope=0.01)
          (2): Linear(in_features=8, out_features=1, bias=True)
          (3): ELU(alpha=1.0)
        ))
      )
    )
    (bn3): BatchNorm1d(128, eps=1e-05, momentum=0.1, affine=True, track_running_stats=True)
    (conv4): MCNWMConv(
      (nn): Sequential(
        (0): Linear(in_features=384, out_features=128, bias=True)
        (1): LeakyReLU(negative_slope=0.01)
        (2): Linear(in_features=128, out_features=128, bias=True)
      )
      (NMMs): ModuleList(
        (0-2): 3 x NWMConv(edge_nn=Sequential(
          (0): Linear(in_features=1, out_features=8, bias=True)
          (1): LeakyReLU(negative_slope=0.01)
          (2): Linear(in_features=8, out_features=1, bias=True)
          (3): ELU(alpha=1.0)
        ))
      )
    )
    (bn4): BatchNorm1d(128, eps=1e-05, momentum=0.1, affine=True, track_running_stats=True)
    (conv5): MCNWMConv(
      (nn): Sequential(
        (0): Linear(in_features=384, out_features=128, bias=True)
        (1): LeakyReLU(negative_slope=0.01)
        (2): Linear(in_features=128, out_features=128, bias=True)
      )
      (NMMs): ModuleList(
        (0-2): 3 x NWMConv(edge_nn=Sequential(
          (0): Linear(in_features=1, out_features=8, bias=True)
          (1): LeakyReLU(negative_slope=0.01)
          (2): Linear(in_features=8, out_features=1, bias=True)
          (3): ELU(alpha=1.0)
        ))
      )
    )
    (bn5): BatchNorm1d(128, eps=1e-05, momentum=0.1, affine=True, track_running_stats=True)
    (set2set): Set2Set(128, 256)
  )
  (fc1): Linear(in_features=256, out_features=128, bias=True)
  (fc2): Linear(in_features=128, out_features=14, bias=True)
)
optimizer:
Adam (
Parameter Group 0
    amsgrad: False
    betas: (0.9, 0.999)
    capturable: False
    differentiable: False
    eps: 1e-08
    foreach: None
    fused: None
    lr: 0.003
    maximize: False
    weight_decay: 0.0007
)
learning rate scheduler: 
<torch.optim.lr_scheduler.ReduceLROnPlateau object at 0x7f93f1165050>
initial gamma of FocalLoss:  0
…
